app/src/main/ml/centing.tflite (tflite, 15648 bytes, 7 tensors)

sequential_1/dense_5/MatMul;sequential_1/dense_5/Relu;sequential_1/dense_5/BiasAdd f4 [32]
1.1822369 1.7775304 0.33169627 1.5222439 -0.20164497 2.023527 2.3707833 0.8926901
1.8054261 -0.17332128 0.6989148 1.7309412 1.8193251 -0.9567374 1.0385429 -1.8602641
-0.9260112 1.9493753 1.1259954 2.0835912 0.20788454 1.0856634 0.4137495 0.22369073
0.9296422 0.8417657 -0.21733327 2.6842182 1.4337628 -1.3712839 2.618217 -0.070222124
00000000: 8a53 973f 1e86 e33f 18d4 a93e e3d8 c23f
00000010: 057c 4ebe 7781 0140 eaba 1740 5787 643f
00000020: 3418 e73f 227b 31be 15ec 323f 7b8f dd3f
00000030: a5df e83f beec 74bf f9ee 843f 221d eebf
00000040: 120f 6dbf 2185 f93f 9e20 903f 8f59 0540
00000050: afdf 543e 05f7 8a3f f9d6 d33e 2f0f 653e
00000060: 08fd 6d3f f57d 573f 9d8c 5ebe 3bca 2b40
00000070: 8a85 b73f 3b86 afbf de90 2740 9ed0 8fbd

sequential_1/batch_normalization_3/batchnorm/mul_1;sequential_1/batch_normalization_3/batchnorm/add_1;sequential_1/dense_5/MatMul;sequential_1/dense_5/Relu;sequential_1/dense_5/BiasAdd f4 [32, 64]
-3.1136837 -2.3380523 -0.029424615 0.419806 0.32473496 -0.15455896 -0.06745778 0.15195589
0.24196355 0.86347455 -0.391716 0.52600145 0.33622387 0.266748 0.71730095 -1.7419109
0.070560426 0.79586405 -0.9099137 -0.053690728 -0.1101916 -0.4271171 -0.038371224 0.72318476
-0.07656076 -1.1290939 -0.108361036 0.42494646 -0.7420069 0.76502156 0.9598375 -0.54047656
2.6321297 0.30233222 -0.5034924 -0.16845419 0.38658354 -0.44514763 -2.6485069 -1.2471396
0.023808619 -0.03554222 -0.017381411 0.6810984 0.7846539 -0.64947456 1.1618872 2.2013798
1.2380725 0.79641914 0.32092836 -1.0808741 -0.39113164 -1.3155653 -0.4412308 1.2492512
0.7210191 -0.24623278 0.27438685 0.4517773 0.9718677 -0.2717931 -0.3042786 -0.014253109
-0.0075115873 -0.035800595 0.32578933 1.3674803 1.1716074 0.07160855 0.11946894 0.06512384
0.5776038 1.07722 0.9473093 0.085478775 1.2171203 -0.54296875 -0.036382154 -2.3087041
-0.08392033 0.35393795 0.23554768 -0.14586954 0.25108835 -2.7912357 -1.3920703 0.5253222
0.3696407 -0.9441681 -0.12428722 -0.031366643 -0.40311712 0.18524253 0.12999494 0.50699943
0.9334547 0.60412174 -1.0089023 -0.21768013 0.8455199 -0.25379327 -3.3754609 -1.7571688
1.3802209 -0.66876924 -0.1937414 0.90994114 -0.25696653 0.26085272 0.77537173 0.46246108
1.030041 0.0057649184 -0.043315157 -1.5823005 -0.14406163 -0.8097337 -0.09988619 1.5163908
0.7568763 -0.34609798 0.24265647 0.04571389 0.4586165 -1.5469512 -0.71478087 -0.7388107
-1.9834453 -0.073645115 0.277452 0.6164819 1.2859895 0.38466865 -0.8905808 0.090142116
1.4583994 -0.38843167 0.791473 -0.034910254 1.7771064 0.54835767 0.15819296 -3.1504698
0.2783065 0.90243196 -0.38784993 0.21670152 -0.14902756 -2.6376626 -1.8344257 0.46114984
0.6080105 -3.6171896 -0.10034588 0.7348059 -0.65086275 0.26811227 1.1841317 0.40716666
2.0263603 0.6774734 -0.76818067 -0.097861506 0.4176793 0.05995212 -5.2409973 -0.26625195
1.0610787 0.0330988 0.93640083 0.1446941 -0.09051608 0.5272439 3.9136045 1.4231231
0.046872158 0.0767278 1.2780418 -0.24941102 -0.026998866 -0.9820132 -0.20376608 -0.028278515
0.06409905 -0.1879077 -0.05939988 -0.08610644 1.1630431 -0.9317483 -0.654833 0.15468271
-1.3697151 0.5331041 -0.10385426 -0.07654213 2.2611768 -0.09461005 -0.98516625 0.18546925
-0.68247217 0.21256514 -0.6061482 0.45484927 1.2859915 -0.5797987 -0.18057682 -0.8825656
0.10887455 0.8292397 0.49531874 0.049374435 0.60053825 -6.1998544 -1.4019256 -0.36224064
0.13992237 -3.804614 -0.3044226 0.4626553 -0.39410537 0.76978093 1.1726599 -0.34123874
1.0839144 0.8373414 -0.66380477 -0.15861136 0.04640679 0.2124751 -5.4845276 -0.22637525
-0.2991848 -0.25395706 0.45180172 0.750432 0.4428427 0.02935529 3.394303 1.0339104
0.22891435 0.6086651 1.1219577 -0.34822577 -1.0418295 -0.5971566 -0.98414737 1.3073659
0.86457556 -0.5517514 0.25457016 0.14249331 0.68422306 -0.8938559 -0.7437956 -0.5327963
00000000: 9846 47c0 a6a2 15c0 e40b f1bc d0f0 d63e
00000010: a943 a63e b444 1ebe 4e27 8abd 539a 1b3e
00000020: 4bc5 773e ab0c 5d3f 008f c8be 08a8 063f
00000030: 8925 ac3e 3293 883e 09a1 373f f0f6 debf
00000040: fc81 903d bfbd 4b3f 1bf0 68bf cfea 5bbd
00000050: 22ac e1bd 18af dabe 252b 1dbd a322 393f
00000060: e3cb 9cbd 2686 90bf 64ec ddbd 9592 d93e
00000070: 2af4 3dbf 74d8 433f e9b7 753f ac5c 0abf
00000080: d074 2840 4acb 9a3e e1e4 00bf 417f 2cbe
00000090: 47ee c53e 64ea e3be 2381 29c0 45a2 9fbf
000000a0: 4b0a c33c b894 11bd 7663 8ebc 775c 2e3f
000000b0: 14df 483f f743 26bf b8b8 943f 68e3 0c40
000000c0: 2979 9e3f 20e2 4b3f b950 a43e 155a 8abf
000000d0: 6842 c8be 7264 a8bf 01e9 e1be 77e7 9f3f
000000e0: b594 383f 7224 7cbe 6f7c 8c3e 5b4f e73e
000000f0: 52cc 783f 7728 8bbe 68ca 9bbe df85 69bc
00000100: c323 f6bb a5a3 12bd dccd a63e 9809 af3f
00000110: 3bf7 953f 81a7 923d 22ac f43d a65f 853d
00000120: d8dd 133f 58e2 893f dd82 723f 7f0f af3d
00000130: 99ca 9b3f 0000 0bbf 7405 15bd cfc1 13c0
00000140: 6cde abbd 5b37 b53e 6933 713e d35e 15be
00000150: a78e 803e 9ba3 32c0 5c2f b2bf 847b 063f
00000160: 8c41 bd3e 00b5 71bf 4c8a febd 4f7a 00bd
00000170: 5e65 cebe 38b0 3d3e 651d 053e b7ca 013f
00000180: e3f6 6e3f b9a7 1a3f b623 81bf 8ae7 5ebe
00000190: fe73 583f 31f1 81be 8d07 58c0 e8ea e0bf
000001a0: 14ab b03f 7634 2bbf 2564 46be e7f1 683f
000001b0: 1e91 83be 7d8e 853e c37e 463f b3c7 ec3e
000001c0: 62d8 833f a4e7 bc3b 3c6b 31bd d388 cabf
000001d0: e484 13be b54a 4fbf 2191 ccbd 1819 c23f
000001e0: a5c2 413f c133 b1be f07a 783e 7d3e 3b3d
000001f0: c8cf ea3e 7f02 c6bf e1fb 36bf b322 3dbf
00000200: 89e1 fdbf 40d3 96bd 300e 8e3e c2d1 1d3f
00000210: 4e9b a43f 4af3 c43e 1afd 63bf 6e9c b83d
00000220: d5ac ba3f 84e0 c6be f99d 4a3f 0efe 0ebd
00000230: 3978 e33f 2b61 0c3f 56fd 213e 4ca1 49c0
00000240: 317e 8e3e c805 673f 4494 c6be 01e7 5d3e
00000250: ae9a 18be 77cf 28c0 76ce eabf d51b ec3e
00000260: 93a6 1b3f 0980 67c0 2482 cdbd 3d1c 3c3f
00000270: f19e 26bf 0346 893e a191 973f 2678 d03e
00000280: e3af 0140 e66e 2d3f 7da7 44bf 9d6b c8bd
00000290: 10da d53e 5b90 753d 40b6 a7c0 2d52 88be
000002a0: 6dd1 873f 9b92 073d f7b7 6f3f b12a 143e
000002b0: 7f60 b9bd 75f9 063f 7f78 7a40 e628 b63f
000002c0: 05fd 3f3d 7723 9d3d e096 a33f 9a65 7fbe
000002d0: ba2c ddbc 3865 7bbf 0ea8 50be 58a8 e7bc
000002e0: 5d46 833d e06a 40be 4a4d 73bd 9358 b0bd
000002f0: 99de 943f 0e87 6ebf 23a3 27bf 2565 1e3e
00000300: d352 afbf 8379 083f 8bb1 d4bd 1fc2 9cbd
00000310: 1fb7 1040 eac2 c1bd db33 7cbf a7eb 3d3e
00000320: 7fb6 2ebf adaa 593e 872c 1bbf 01e2 e83e
00000330: 5f9b a43f b06d 14bf 21e9 38be d2ef 61bf
00000340: 9ff9 de3d 0e49 543f 6b9a fd3e d93c 4a3d
00000350: e0bc 193f 3565 c6c0 4c72 b3bf 9b77 b9be
00000360: cf47 0f3e cc7e 73c0 47dd 9bbe 28e1 ec3e
00000370: 2ec8 c9be 5d10 453f b819 963f d8b6 aebe
00000380: b5bd 8a3f 025c 563f 1cef 29bf 046b 22be
00000390: 0c15 3e3d 1393 593e 4081 afc0 eace 67be
000003a0: c02e 99be a906 82be 8e52 e73e 501c 403f
000003b0: 47bc e23e 817a f03c 433c 5940 2d57 843f
000003c0: 8668 6a3e 7ad1 1b3f 4f9c 8f3f a64a b2be
000003d0: ab5a 85bf 41df 18bf 15f1 7bbf c457 a73f
000003e0: d354 5d3f 943f 0dbf 0557 823e c4e9 113e
000003f0: 3e29 2f3f bed3 64bf 6369 3ebf 5765 08bf

sequential_1/dense_6/MatMul;sequential_1/dense_6/Relu;sequential_1/dense_6/BiasAdd f4 [16]
1.5565192 1.46915 2.3738914 1.8126098 2.312316 1.9647969 0.33366516 1.4180347
2.1946037 1.686206 1.5184613 1.070132 1.5247163 1.9914664 1.8166891 -0.27756858
00000000: 053c c73f 1b0d bc3f d6ed 1740 9903 e83f
00000010: fcfc 1340 777e fb3f 29d6 aa3e 2982 b53f
00000020: 6374 0c40 99d5 d73f f15c c23f 16fa 883f
00000030: e729 c33f 5fe8 fe3f 4589 e83f 781d 8ebe

sequential_1/batch_normalization_4/batchnorm/mul_1;sequential_1/batch_normalization_4/batchnorm/add_1;sequential_1/dense_6/MatMul;sequential_1/dense_6/Relu;sequential_1/dense_6/BiasAdd f4 [16, 32]
0.02479962 0.050800826 0.042557213 -0.030693358 0.024399174 -0.028858492 0.058462583 0.030083807
-0.07753069 -0.075286634 -0.035354696 0.06567655 -0.01333643 0.019938841 0.0425056 -0.031202625
-0.00884971 0.06711151 -0.040916048 0.044212643 -0.01655829 0.02367227 -0.05755648 0.05050605
-0.0780471 -0.03964764 0.026808953 -0.031860843 -0.23374282 -0.025725154 0.06556655 0.0068468796
0.054230303 0.11408673 0.03813646 0.09690969 -0.036628652 0.055472553 -0.011675842 -0.008671805
-0.21081954 -0.05168775 0.07939902 -0.14712115 0.049746916 -0.0005007356 0.01621567 -0.054345183
-0.09999972 0.08109187 -0.058640607 0.04798277 0.007392495 -0.00095245003 -0.08465997 0.039076596
0.0023090527 -0.024066014 0.026781535 -0.17101268 -0.2198892 -0.08509382 0.020596284 0.032444354
0.00649114 -0.021058807 0.04262324 -0.016610587 0.017051691 0.003118537 0.04574753 0.035080474
-0.17654905 -0.11284271 0.031963993 -0.031852107 -0.009273841 0.03317988 -0.012708329 -0.06540892
-0.015483324 -0.009095852 -0.06841639 0.04226813 0.03400298 0.0039903694 -0.0881879 -0.036278427
-0.06266374 -0.018165348 -0.028298423 -0.03012364 0.04151487 -0.014649238 -0.00017267332 -0.09726688
0.012758151 0.0126695465 0.010252186 0.0065099574 0.002035909 0.011885295 0.04896775 -0.0025877608
-0.059290245 -0.05596337 0.0034613006 -0.04783823 0.07492932 0.023111595 0.014303728 -0.05119472
-0.031403802 -0.012776836 0.011646975 0.024085907 0.023413787 0.01677248 -0.05177318 0.054128814
-0.036029324 0.07635183 0.048828814 0.048084803 -0.25696674 -0.02817445 0.027504537 -0.096249096
0.0062729134 0.039270423 -0.036445923 0.050825737 -0.049410723 0.013026512 -0.0024286075 0.013097747
-0.10134195 -0.0221464 -0.32332873 -0.03206964 0.023346275 0.020858353 0.0032930793 -0.015926704
0.002555876 0.013414703 -0.014120364 0.008849061 0.036412407 0.03316051 0.0035370425 0.03395518
0.03821121 0.015739989 0.03646087 -0.029486034 -0.25354487 -0.034343358 0.050717894 -0.008970186
-0.014889768 0.040290363 -0.015384185 -0.01780049 0.033755526 0.060456157 0.075264886 0.02990684
-0.20465967 -0.114277296 0.025378 -0.082378745 -0.027370857 -0.0035484284 0.013397418 -0.07407648
-0.07913035 0.053632766 -0.04464999 0.013652952 0.0014179348 0.042136177 -0.01149627 0.0332
-0.07108391 0.018808808 0.06689357 0.016874513 0.11651504 -0.008627465 -0.011580135 -0.06472531
-0.032460388 -0.006717324 -0.067259714 -0.024486676 -0.12452603 -0.034695607 0.011808891 -0.04608673
0.3624676 0.11171308 0.24011707 0.071350135 -0.03007475 -0.07179783 -0.024387565 0.06263608
0.037760228 0.0059927986 0.18599513 -0.0702285 -0.17388567 -0.102467604 0.07618664 -0.10638363
0.03233359 -0.070368476 -0.018543182 -0.16550529 0.288328 0.010607759 -0.07402172 0.1842313
-0.047238488 -0.06053341 -0.014285851 -0.056479484 -0.113582775 -0.085431196 -0.056634933 -0.09041066
0.10562462 0.073131405 0.27379188 0.08789805 -0.031041045 -0.09072312 -0.07045316 -0.01332878
0.012172763 -0.13614267 0.101774655 -0.020499839 -0.021664247 -0.09074237 0.031023046 -0.059927866
0.024231711 -0.14663681 -0.018232947 -0.030169895 0.49360374 0.024565544 -0.11574202 0.0951759
00000000: 9328 cb3c 8714 503d 7950 2e3d a370 fbbc
00000010: c7e0 c73c a568 ecbc 7676 6f3d 5172 f63c
00000020: 69c8 9ebd e12f 9abd 16d0 10bd 6d81 863d
00000030: 0b81 5abc c856 a33c 5a1a 2e3d a69c ffbc
00000040: 60fe 10bc c271 893d 9697 27bd 5118 353d
00000050: 40a5 87bc 59ec c13c 58c0 6bbd 6fdf 4e3d
00000060: 28d7 9fbd 9065 22bd 739e db3c 8480 02bd
00000070: 475a 6fbe 8fbd d2bc c147 863d ca5b e03b
00000080: 9820 5e3d 4ea6 e93d fa34 1c3d 9678 c63d
00000090: ed07 16bd 3037 633d 084c 3fbc 3014 0ebc
000000a0: 14e1 57be 89b6 53bd f49b a23d eda6 16be
000000b0: 6cc3 4b3d cc43 03ba bad6 843c 0e99 5ebd
000000c0: a7cc ccbd 7f13 a63d 2231 70bd 9589 443d
000000d0: be3c f23b d7ad 79ba 3562 adbd c80e 203d
000000e0: 7a53 173b 1726 c5bc f364 db3c f31d 2fbe
000000f0: a22a 61be ab45 aebd 8ab9 a83c 5fe4 043d
00000100: a1b3 d43b 8583 acbc b595 2e3d ed12 88bc
00000110: fdaf 8b3c 5e60 4c3b c361 3b3d 8bb0 0f3d
00000120: 46c9 34be 141a e7bd adec 023d 5b77 02bd
00000130: 4ff1 17bc a0e7 073d 9836 50bc 1df5 85bd
00000140: c5ad 7dbc c506 15bc e41d 8cbd 5921 2d3d
00000150: b546 0b3d a5c1 823b dc9b b4bd b098 14bd
00000160: d955 80bd 7fcf 94bc 18d2 e7bc dac5 f6bc
00000170: 7f0b 2a3d 5c03 70bc a40f 35b9 dc33 c7bd
00000180: 9007 513c ee93 4f3c c9f8 273c 7b51 d53b
00000190: e36c 053b 8aba 423c 6892 483d 6c97 29bb
000001a0: 54da 72bd d939 65bd fdd6 623b 05f2 43bd
000001b0: 8b74 993d 8754 bd3c 2f5a 6a3c 8eb1 51bd
000001c0: 46a1 00bd ef55 51bc f4d2 3e3c cf4f c53c
000001d0: 45ce bf3c 7166 893c 1d10 54bd 2db6 5d3d
000001e0: 7c93 13bd 595e 9c3d b900 483d 92f4 443d
000001f0: 2591 83be 1bce e6bc 3251 e13c 3f1e c5bd
00000200: 038d cd3b 06da 203d 5248 15bd a62e 503d
00000210: e662 4abd 276d 553c 4629 1fbb ef97 563c
00000220: 5e8c cfbd 5e6c b5bc 588b a5be 745b 03bd
00000230: b040 bf3c 23df aa3c b4d0 573b b878 82bc
00000240: 7c80 273b 58c9 5b3c 1959 67bc a7fb 103c
00000250: 2d25 153d 51d3 073d bacd 673b 9614 0b3d
00000260: 5c83 1c3d 26f1 803c fe57 153d b28c f1bc
00000270: a2d0 81be 9fab 0cbd 91bd 4f3d b0f7 12bc
00000280: 37f4 73bc 8207 253d f30d 7cbc 55d2 91bc
00000290: 3c43 0a3d e0a0 773d 7a24 9a3d 30ff f43c
000002a0: 4e92 51be 370a eabd 86e5 cf3c 30b6 a8bd
000002b0: d938 e0bc c08c 68bb d880 5b3c 69b5 97bd
000002c0: 180f a2bd 08ae 5b3d e8e2 36bd a2b0 5f3c
000002d0: ffd9 b93a fc96 2c3d da5a 3cbc b9fc 073d
000002e0: 7194 91bd ee14 9a3c 7fff 883d 6b3c 8a3c
000002f0: 709f ee3d 365a 0dbc 9bba 3dbc b48e 84bd
00000300: 2ff5 04bd ff1c dcbb 76bf 89bd 4898 c8bc
00000310: 8107 ffbd fb1c 0ebd 147a 413c 70c5 3cbd
00000320: 5a95 b93e d4c9 e43d 40e1 753e 0520 923d
00000330: 525f f6bc be0a 93bd 6ec8 c7bc 5847 803d
00000340: 78aa 1a3d 3d5f c43b 8275 3e3e f6d3 8fbd
00000350: 160f 32be 89da d1bd be07 9c3d a9df d9bd
00000360: 3a70 043d 591d 90bd dfe7 97bc 387a 29be
00000370: ba9f 933e 2acc 2d3c b398 97bd 21a7 3c3e
00000380: 257d 41bd e2f1 77bd 340f 6abc 0857 67bd
00000390: 169e e8bd 8df6 aebd 08fa 67bd 3929 b9bd
000003a0: b951 d83d ebc5 953d 732e 8c3e e503 b43d
000003b0: ca49 febc 0bcd b9bd bf49 90bd f560 5abc
000003c0: 4570 473c fc68 0bbe 3b6f d03d 47ef a7bc
000003d0: 3879 b1bc 23d7 b9bd 0b24 fe3c ec76 75bd
000003e0: 9581 c63c f627 16be 435d 95bc db26 f7bc
000003f0: a1b9 fc3e ae3d c93c 270a edbd 95eb c23d

sequential_1/batch_normalization_5/batchnorm/mul_1;sequential_1/batch_normalization_5/batchnorm/add_1;sequential_1/dense_7/MatMul;sequential_1/dense_7/BiasAdd f4 [1, 16]
0.07119669 0.042191915 0.070554584 0.06875748 0.07522148 0.06470709 -0.048409835 -0.047654558
0.06343854 0.048228253 0.042089943 0.058939274 0.067256324 0.098616175 0.06900971 -0.041154943
00000000: 92cf 913d 6ed1 2c3d ec7e 903d b9d0 8c3d
00000010: b80d 9a3d 2785 843d 6449 46bd 6d31 43bd
00000020: 11ec 813d fd8a 453d 8166 2c3d 4f6a 713d
00000030: afbd 893d 47f7 c93d f654 8d3d 1692 28bd

sequential_1/dense_4/BiasAdd/ReadVariableOp f4 [64]
-0.42072296 -0.1531539 -0.037173234 -0.19094588 -0.3369185 0.103897855 0.46400478 0.06797267
-0.40377352 -0.24188223 -0.33841726 0.03598928 -0.24625802 0.09087996 -0.059629288 -0.5223997
-0.035396267 0.5180047 -0.19900921 0.04598348 -0.12185939 -0.45274588 -0.4128983 -0.0047823642
0.2802462 -0.51762533 -0.14958109 0.055926785 0.16448897 -0.004366101 -0.03511412 0.28231704
-0.39261338 -0.022009484 -0.39595947 0.10343956 -0.14557765 -0.1222122 -0.47137123 -0.24205394
-0.099865936 0.43005586 -0.17686433 -0.14994636 0.21834889 0.13618611 -0.3450432 -0.35568702
-0.305739 -0.274416 -0.085400335 -0.109528676 -0.23793721 -0.38117737 -0.059824206 -0.26156035
-0.09303294 0.39243093 -0.09760164 0.18697575 0.012245441 -0.16211133 -0.13515124 -0.05379645
00000000: 0069 d7be 60d4 1cbe f642 18bd 5187 43be
00000010: 9580 acbe 66c8 d43d 0992 ed3e 4135 8b3d
00000020: 67bb cebe faaf 77be 0745 adbe 7f69 133d
00000030: 102b 7cbe 461f ba3d d73d 74bd fdbb 05bf
00000040: adfb 10bd f59b 043f 12c9 4bbe 2c59 3c3d
00000050: 6a91 f9bd 4fce e7be 6867 d3be 61b5 9cbb
00000060: 6e7c 8f3e 1883 04bf c92b 19be 7c13 653d
00000070: cc6f 283e 8311 8fbb d3d3 0fbd dc8b 903e
00000080: 9f04 c9be 3c4d b4bc 33bb cabe 1fd8 d33d
00000090: 4f12 15be 644a fabd 9257 f1be fddc 77be
000000a0: 8386 ccbd 4830 dc3e ec1b 35be 8a8b 19be
000000b0: da96 5f3e 5f74 0b3e 81a9 b0be 9c1c b6be
000000c0: d289 9cbe 4180 8cbe 5fe6 aebd 9250 e0bd
000000d0: d0a5 73be ae29 c3be 3a0a 75bd 3deb 85be
000000e0: 0e88 bebd b5ec c83e 5ee3 c7bd 9276 3f3e
000000f0: 1aa1 483c 8300 26be 1665 0abe ab59 5cbd

sequential_1/dense_4/MatMul f4 [64, 6]
0.063601315 -0.09394929 -0.21447724 0.2353084 -0.039372414 0.025419407 -0.35023758 0.035635006
-0.3488591 -0.03685329 -0.04166876 -0.0067629167 0.16388772 0.0067523485 -0.023894597 -0.10534495
-0.50154966 -0.16803816 0.10020757 0.048447397 -0.018461771 -0.19374001 -0.28002623 0.42406288
0.15430415 0.36294833 0.20739874 -0.0119513 0.06761329 -0.16846406 -0.03336135 0.0025547615
0.02196768 0.011669476 0.09588919 0.8554322 0.0002766314 -0.26891568 0.044551387 0.23471929
-0.25954768 -0.058138613 -0.02980736 -0.0050240126 0.012616365 0.018985992 -0.010734443 1.129831
0.02489586 0.044842564 0.042516258 0.0063722082 -0.447545 -0.09971253 0.12662324 0.18071324
-0.211134 -0.150696 -0.2277997 0.117365345 0.16748746 -0.052442607 -0.31965628 0.21203433
-0.24433431 0.014405362 0.046779282 -0.168335 -0.52011657 0.14402777 0.030796794 0.052829985
0.10472292 0.1442189 -0.06672335 -0.23997878 -0.21338457 0.44870648 0.08467313 0.1281491
-0.37119865 -0.35692835 -0.034112383 0.02563018 -0.35599688 0.04266654 0.043891072 0.0032093844
0.33766007 -0.35715935 0.11656084 -0.10652289 -0.19039953 0.22719188 -0.0385362 -0.023380917
-0.12349109 -0.011213371 0.017401215 -0.14778164 0.2170302 -0.5832522 -0.00870067 0.14008097
-0.009831683 -0.14217417 0.34373134 -0.05922567 -0.034295876 0.07163223 0.037764743 -0.044804145
-0.1150829 -0.7555811 -0.046653803 0.028592791 0.022223188 -0.022587901 0.009153636 1.031555
-0.27612445 0.11241023 0.23281054 -0.08547202 -0.34716865 0.22583117 -0.09851837 -0.15725617
-0.21273418 0.09845518 -0.0032321517 0.020097584 -0.0889173 -0.40237793 -0.1541635 0.27418706
-0.012154747 -0.077985294 0.14671047 0.14626624 0.15120824 -0.43585205 -0.19691561 0.13149506
0.02136934 0.099502765 0.09330184 -0.34485468 0.431721 0.0701746 -0.1002824 -0.17784445
-0.20453535 0.012421549 -0.009072807 0.08128959 -0.029590378 -0.24553561 -0.24522482 0.25836053
-0.34651965 0.034361202 -0.09418574 0.10750217 0.021826832 -0.045120224 0.22036254 -0.48974738
-0.2384148 -0.04232103 -0.2661218 0.4353033 -0.064207844 0.020816984 -0.1363459 0.1954258
0.23374458 -0.62197477 -0.13552065 -0.009288061 -0.056273058 0.33630854 0.1526526 -0.29950556
0.35473415 0.17077969 0.1460372 0.24585824 -0.13392687 -0.44577387 -0.1501919 -0.05080489
-0.01987098 -0.0016514403 0.025525665 -0.2823028 -0.22942215 -0.13059284 -0.03124113 0.2883002
0.18944365 -0.22424152 0.18019101 0.13257506 -0.091268055 -0.30478948 -0.19382122 0.23627178
-0.025144793 -0.02556723 -0.063986644 0.1327689 0.009952757 -0.034509275 0.32541695 -0.5600367
0.095004015 0.22216323 0.09659157 -0.33740795 -0.14398414 0.25509572 -0.3722938 -0.039935358
-0.50502837 0.08813223 -0.036175206 -0.047808126 0.20418315 0.051522676 -0.0902349 0.27373895
-0.08122635 -0.0028497083 -0.15579988 0.082856745 -0.23443614 0.2415547 0.20611829 0.3371033
0.13064037 0.19812709 0.08798089 -0.40164194 -0.19273195 0.27838916 0.05795041 -0.3286455
-0.16918388 0.30196425 0.022794973 0.16471213 0.10959822 0.1415367 -0.06419416 -0.07433629
00000000: 6841 823d 7c68 c0bd ec9f 5bbe aff4 703e
00000010: f844 21bd 5c3c d03c 5752 b3be 03f6 113d
00000020: a99d b2be 7af3 16bd ddac 2abd 759b ddbb
00000030: 2fd2 273e ce42 dd3b 9abe c3bc 18bf d7bd
00000040: 8f65 00bf 3212 2cbe a039 cd3d c770 463d
00000050: 243d 97bc c863 46be 995f 8fbe c51e d93e
00000060: e801 1e3e 5dd4 b93e 5660 543e 63cf 43bc
00000070: d678 8a3d d881 2cbe e9a5 08bd c96d 273b
00000080: 90f5 b33c 5431 3f3c 8d61 c43d 9bfd 5a3f
00000090: d708 9139 51af 89be 847b 363d 415a 703e
000000a0: 6fe3 84be c122 6ebd 912e f4bc 79a0 a4bb
000000b0: dfb4 4e3c 8388 9b3c 84df 2fbc 4d9e 903f
000000c0: 67f2 cb3c d6ac 373d 8725 2e3d f5cd d03b
000000d0: 9e24 e5be 1536 ccbd 86a9 013e e40c 393e
000000e0: 8333 58be 0d50 1abe 5344 69be 3e5d f03d
000000f0: d581 2b3e 0fce 56bd fda9 a3be 871f 593e
00000100: c632 7abe 7804 6c3c a29b 3f3d 0360 2cbe
00000110: 5c26 05bf 047c 133e 8f49 fc3c 4164 583d
00000120: f878 d63d 1fae 133e 40a6 88bd ffbc 75be
00000130: 7c81 5abe dbbc e53e 1b69 ad3d 8539 033e
00000140: c00d bebe 50bf b6be 6db9 0bbd 62f6 d13c
00000150: 3945 b6be 1cc3 2e3d 20c7 333d 8954 523b
00000160: c8e1 ac3e 97dd b6be 73b7 ee3d ac28 dabd
00000170: 18f8 42be fda4 683e 22d8 1dbd 5689 bfbc
00000180: e6e8 fcbd 49b8 37bc fe8c 8e3c 1254 17be
00000190: 2a3d 5e3e 0450 15bf 418d 0ebc 6371 0f3e
000001a0: 1115 21bc 1b96 11be 8efd af3e 9e96 72bd
000001b0: d579 0cbd ebb3 923d 34af 1a3d 8d84 37bd
000001c0: 95b0 ebbd c36d 41bf 0f18 3fbd 6e3b ea3c
000001d0: 670d b63c 430a b9bc 22f9 153c ff09 843f
000001e0: 2f60 8dbe 5637 e63d e365 6e3e f40b afbd
000001f0: 17c0 b1be 4940 673e 00c4 c9bd c307 21be
00000200: fdd6 59be dfa2 c93d 82d2 53bb b0a3 a43c
00000210: 461a b6bd 7b04 cebe 09dd 1dbe 3f62 8c3e
00000220: b424 47bc c1b6 9fbd 453b 163e d1c6 153e
00000230: 55d6 1a3e 0028 dfbe 3fa4 49be a4a6 063e
00000240: c10e af3c 1bc8 cb3d 0915 bf3d cb90 b0be
00000250: 890a dd3e b3b7 8f3d dc60 cdbd db1c 36be
00000260: b771 51be c183 4b3c 1ca6 14bc 287b a63d
00000270: 8567 f2bc b06d 7bbe 371c 7bbe d547 843e
00000280: 066b b1be 55be 0c3d 74e4 c0bd 192a dc3d
00000290: 2fce b23c fccf 38bd b8a6 613e 2bc0 fabe
000002a0: 0223 74be d158 2dbd 1e41 88be 13e0 de3e
000002b0: 677f 83bd 6188 aa3c 429e 0bbe b31d 483e
000002c0: bd5a 6f3e bd39 1fbf edc5 0abe f42c 18bc
000002d0: 947e 66bd a230 ac3e f750 1c3e cb58 99be
000002e0: b79f b53e dfe0 2e3e c78a 153e 43c2 7b3e
000002f0: 2024 09be 793c e4be e8cb 19be ca18 50bd
00000300: 77c8 a2bc 2475 d8ba 331b d13c fe89 90be
00000310: a4ed 6abe 21ba 05be 66ed ffbc 159c 933e
00000320: 84fd 413e 929f 65be fe83 383e c2c1 073e
00000330: bfea babd 5e0d 9cbe 1279 46be 3bf1 713e
00000340: 74fc cdbc 5e72 d1bc 6e0b 83bd 92f4 073e
00000350: e310 233c 9959 0dbd 0d9d a63e 915e 0fbf
00000360: 7791 c23d c27e 633e cdd1 c53d bcc0 acbe
00000370: 9470 13be e89b 823e 4b9d bebe 4293 23bd
00000380: 8a49 01bf ac7e b43d 742c 14bd 74d2 43bd
00000390: 6315 513e 7109 533d 13cd b8bd 8327 8c3e
000003a0: 005a a6bd 2cc2 3abb 018a 1fbe ccb0 a93d
000003b0: 0710 70be 1e5a 773e ac10 533e ce98 ac3e
000003c0: 97c6 053e d4e1 4a3e 532f b43d 03a4 cdbe
000003d0: 865b 45be 0689 8e3e 695d 6d3d 3944 a8be
000003e0: 8a3e 2dbe 0f9b 9a3e 86bc ba3c 4caa 283e
000003f0: 0875 e03d ffee 103e 3a78 83bd a03d 98bd
