app/src/main/ml/testmodel.tflite (tflite, 11956 bytes, 6 tensors)

sequential/dense_1/BiasAdd/ReadVariableOp f4 [32]
0	0x3e0c93f8	0.1372832
1	0xbc2248e1	-0.009905071
2	0x3ad1750b	0.0015980316
3	0xbcbf8873	-0.023380494
4	0x3f1023ce	0.56304634
5	0xbc39c472	-0.01133834
6	0x3d87c806	0.06629948
7	0x3d5c8b5e	0.05384385
8	0x3de15141	0.11001826
9	0x3edc1474	0.42984354
10	0x3edef17a	0.43543607
11	0x3f0e97c6	0.5570034
12	0xbd8f6e05	-0.070034064
13	0xbe57b2a0	-0.21064234
14	0xbc18bba2	-0.009322079
15	0xbed17672	-0.4091068
16	0xbe43bc68	-0.1911484
17	0x3ecad90c	0.3961872
18	0x3ed74553	0.42045078
19	0xbe6c3016	-0.23065218
20	0x3ead1344	0.3380376
21	0x3cdec411	0.027193101
22	0xbede9f39	-0.43480852
23	0xbc77f97f	-0.015135168
24	0xbc18bbbd	-0.009322104
25	0x3efac0d7	0.4897525
26	0xbd2d2cea	-0.04227916
27	0xbe41baee	-0.18918964
28	0xbc7a7c38	-0.015288405
29	0x3f2c8928	0.67396784
30	0x3f22151b	0.63313454
31	0xbec37bf0	-0.38180494

sequential/dense_2/BiasAdd/ReadVariableOp f4 [4]
0	0x3e760488	0.24025166
1	0xbdc72790	-0.09724343
2	0x3e231685	0.1592656
3	0xbefc736c	-0.4930681

sequential/dense/BiasAdd/ReadVariableOp f4 [64]
0	0x3f1f226a	0.62161887
1	0x3f07290e	0.5279702
2	0xbc06bc7c	-0.008223649
3	0x3ab054df	0.0013453028
4	0x3df91c69	0.12163622
5	0xbe4fae6d	-0.20281382
6	0xbe4a35ce	-0.19747087
7	0xbf502e44	-0.81320596
8	0xbe9929e3	-0.2991477
9	0x3f09909a	0.5373627
10	0x3f150596	0.5821165
11	0x3f149c79	0.5805126
12	0x3f5f4dad	0.872279
13	0x3f23d8fb	0.6400296
14	0x3f32b064	0.698004
15	0x3f22f599	0.63656
16	0x3f188610	0.59579563
17	0xbc7491e8	-0.014927365
18	0x3d871f97	0.06597822
19	0x3f22d18b	0.6360099
20	0x3f305fd9	0.6889625
21	0x3f3874a8	0.72053003
22	0x3f214ed5	0.63010913
23	0xbf594e97	-0.84885544
24	0xbf2e7245	-0.6814311
25	0xbdbd2e59	-0.09237356
26	0xbe28b4ed	-0.16475268
27	0xbf2288ec	-0.63490176
28	0xbee30108	-0.44336724
29	0x3f42d90e	0.7611245
30	0xbdf03da9	-0.11730511
31	0x3e11cd97	0.14238583
32	0xbd183efc	-0.03716944
33	0x3f20f7e5	0.6287826
34	0x3e994069	0.29931954
35	0x3f35bd72	0.70992196
36	0xbf4a8828	-0.7911401
37	0xbe8eca66	-0.27888793
38	0x3eac5fda	0.3366688
39	0x3f052087	0.5200276
40	0x3f2988db	0.6622445
41	0xbe97c04e	-0.29638904
42	0xbdd5d500	-0.10441017
43	0x3f3148b9	0.6925159
44	0x3ec95e72	0.3932987
45	0xbd4f1019	-0.05055246
46	0x3f0480e6	0.51759183
47	0x3df839dd	0.121204115
48	0x3f00f34a	0.5037123
49	0xbed0bc28	-0.40768552
50	0x3e658e7d	0.22417636
51	0x3f3e160a	0.7425238
52	0x3e968af6	0.29402894
53	0x3eb84c7a	0.35995847
54	0x3e9ebdd4	0.31004202
55	0x3f19e5f6	0.6011652
56	0x3f1a9f16	0.60398996
57	0x3f36d973	0.7142555
58	0x3e20d8bc	0.15707678
59	0xbe04400f	-0.12915061
60	0xbd02af94	-0.031905726
61	0xbd8dadb9	-0.069179006
62	0xbcb048a8	-0.02151902
63	0xbf00212e	-0.5005063

sequential/dense/MatMul f4 [64, 3]
0	0xbf10b97e	-0.5653304
1	0x3e4f2f9c	0.20233005
2	0x3f7b2f63	0.9811918
3	0xbef99b06	-0.48751086
4	0x3e2e15e7	0.17000543
5	0x3f3dcdae	0.7414197
6	0x3e21ec03	0.15812688
7	0xbd8a0b55	-0.06740443
8	0xbe0a869f	-0.13527916
9	0x3d648896	0.05579432
10	0x3d20d47d	0.039265145
11	0x3b3ac121	0.0028496461
12	0xbe705bf0	-0.23472571
13	0x3e124203	0.14282994
14	0x3f311bb6	0.6918291
15	0xbee0d1bb	-0.43910012
16	0x3e93d53e	0.28873628
17	0xbdc3f808	-0.095687926
18	0xbf35e289	-0.7104879
19	0x3d6a64c5	0.057225008
20	0x3e973786	0.2953455
21	0xbe9ca963	-0.30597982
22	0xbd35c444	-0.044376627
23	0xbec5b6b3	-0.3861595
24	0xbf39165d	-0.7229975
25	0xbe595ddb	-0.2122721
26	0xbe9d3cd2	-0.30710465
27	0xbe9569ce	-0.29182285
28	0xbf9135ae	-1.1344507
29	0x3f0031a8	0.5007577
30	0xbe8e673c	-0.27813137
31	0x3e8b27f7	0.27178928
32	0x3f51a65e	0.8189448
33	0x3ebe7bcf	0.37203833
34	0x3e3b9fb1	0.18322636
35	0xbe7aa1ac	-0.24475735
36	0xbe0bff2d	-0.1367156
37	0x3e10bf1e	0.14135405
38	0x3f6cdb61	0.92522246
39	0xbe76fe17	-0.24120365
40	0x3ca9d8c5	0.020733247
41	0x3f0d8d15	0.552934
42	0x3c035ab6	0.008017233
43	0xbdfd8e72	-0.12380685
44	0x3f373e8c	0.71579814
45	0xbf15a336	-0.58452165
46	0x3e3ae542	0.18251517
47	0x3f6f736c	0.93535495
48	0xbe3741b5	-0.17896159
49	0x3e25789f	0.16159295
50	0x3f5e934a	0.86943495
51	0xbf39f86f	-0.72644705
52	0x3e0e9a87	0.13926135
53	0x3de3197a	0.11088844
54	0xbf3f097d	-0.7462385
55	0x3e181a94	0.14853889
56	0x3de9584d	0.11393795
57	0x3eea4952	0.45759064
58	0x3d83a33e	0.0642762
59	0xbebfafeb	-0.37438902
60	0x3f0a170a	0.53941405
61	0x3dbf0413	0.09326949
62	0xbed69bbf	-0.419157
63	0x3dd53c06	0.10411839
64	0x3db0dc30	0.086357474
65	0x3f67fd03	0.9062044
66	0xbe576db7	-0.21037947
67	0x3eaf4c05	0.34237686
68	0x3f56b06b	0.8386294
69	0xbe68b930	-0.22726893
70	0x3d833b99	0.06407852
71	0xbeec4b8a	-0.46151382
72	0xbf060c12	-0.5236217
73	0xbde74324	-0.11292103
74	0xbebd5bd6	-0.36984128
75	0xbf067810	-0.5252695
76	0xbdd96604	-0.10615161
77	0x3f3daaec	0.7408893
78	0xbeba0a93	-0.36336192
79	0xbe86c059	-0.26318625
80	0x3ea6e45e	0.32596105
81	0x3f271fa5	0.6528266
82	0xbe4ba6b2	-0.19887808
83	0x3e683b2b	0.22678821
84	0xbf3db810	-0.7410898
85	0x3d304359	0.043032978
86	0xbdc9db30	-0.0985626
87	0x3ee84b02	0.45369726
88	0xbdfa3494	-0.1221706
89	0xbec6bd16	-0.38816136
90	0x3d8e478d	0.06947241
91	0x3c9ded7b	0.019278279
92	0xbd96aa49	-0.07356698
93	0x3e743566	0.23848495
94	0xbf24db24	-0.6439688
95	0xb8aeecd8	-8.341082e-05
96	0x3e67bdcd	0.22630997
97	0xbdfe4c60	-0.12416911
98	0xbe3cd2ef	-0.1843984
99	0x3eda5f15	0.42650667
100	0x3c8d8c9f	0.017278967
101	0xbe98000b	-0.29687533
102	0x3f18bc94	0.5966275
103	0x3c9af449	0.018915312
104	0xbebfa12e	-0.37427658
105	0x3f161792	0.58629715
106	0x3e03b74d	0.12862892
107	0xbef6a77f	-0.48174664
108	0xbf13dc0c	-0.5775764
109	0x3e06b96a	0.13156667
110	0xbef08dea	-0.46983272
111	0x3ecb0f9f	0.39660355
112	0x3ec71776	0.38885087
113	0x3e736d9a	0.23772278
114	0x3ed09a52	0.40742737
115	0x3dad8e03	0.08474352
116	0xbeb56a61	-0.35432723
117	0xbe60de01	-0.21959688
118	0xbf8db5f9	-1.1071159
119	0x3eddebfb	0.433441
120	0x3f08d436	0.5344881
121	0x3e7a139f	0.24421547
122	0xbeb4c094	-0.35303175
123	0xbe5d7481	-0.21626474
124	0x3e6f03f7	0.23341356
125	0xbe2ea88b	-0.17056482
126	0xbe37ff32	-0.17968443
127	0x3d11aba4	0.03556408
128	0x3dd87012	0.10568251
129	0xbf0fcb2b	-0.56169385
130	0x3e8d8eaa	0.27647907
131	0x3f5a0ded	0.851775
132	0x3ef9ffc3	0.48827943
133	0xba372a95	-0.0006987241
134	0xbedb8796	-0.4287688
135	0x3ea4305d	0.32068148
136	0xbc48b953	-0.012251216
137	0xbe7f721e	-0.24945876
138	0x3ebb6fde	0.36608785
139	0x3d63c068	0.055603415
140	0xbe999e13	-0.30003414
141	0xbf0acef1	-0.5422202
142	0xbd94764b	-0.07249125
143	0x3c87734a	0.016534466
144	0x3e95c95b	0.29255185
145	0xbeb5cf6d	-0.35509816
146	0xbe38a6fc	-0.1803245
147	0xbefb7bd0	-0.491179
148	0xbcbe8774	-0.023257948
149	0xbe5d45c4	-0.21608645
150	0x3e884d84	0.2662164
151	0xbeea6c61	-0.45785812
152	0x3de1ffa4	0.11035088
153	0x3f1b592b	0.60682935
154	0x3df3b4f2	0.11899747
155	0xbefc554f	-0.49283835
156	0x3ed3daa9	0.41377762
157	0x3e7fc19e	0.24976203
158	0xbdd49db2	-0.103816405
159	0x3f0a8a52	0.5411731
160	0xbd017251	-0.03160316
161	0xbec8a6fa	-0.39189893
162	0xbe5e0d1c	-0.21684688
163	0x3e73a6dd	0.23794122
164	0x3f4eeef1	0.80833346
165	0x3ec16f0b	0.37780032
166	0x3e18397b	0.14865677
167	0xbe8a9ae6	-0.27071303
168	0x3de92943	0.11384823
169	0x3cc56aec	0.024098836
170	0x3f44e435	0.76910716
171	0x3f0caf79	0.5495525
172	0xbd1d5c0e	-0.03841787
173	0xbed58f19	-0.41710737
174	0xbe9fc570	-0.3120532
175	0x3e1b3162	0.15155557
176	0x3ec53766	0.38518828
177	0x3ea2e834	0.31817782
178	0xbd5ec321	-0.05438531
179	0x3f6be1df	0.92141527
180	0x3e9ba2b9	0.30397585
181	0xbe190b59	-0.14945735
182	0x3f4535c8	0.7703519
183	0xbef0d0b0	-0.47034216
184	0x3eb1196a	0.34589702
185	0x3eaf2bc7	0.34213087
186	0x3ea050aa	0.31311542
187	0xbd32e3a4	-0.043674126
188	0xbe9551ac	-0.29163873
189	0xbf380298	-0.7187896
190	0x3df836a2	0.121197954
191	0xbdd08757	-0.10182064

sequential/dense_1/MatMul f4 [32, 64]
0	0x3e211266	0.15729675
1	0x3e3615a8	0.17781699
2	0xbe2bdbd6	-0.1678308
3	0x3e3643de	0.17799327
4	0xbeaa1e6d	-0.33226338
5	0x3e5af6f8	0.21383274
6	0xbe8f23cf	-0.27957007
7	0x3ed35671	0.41276887
8	0x3e52623d	0.20545287
9	0x3e9c0d28	0.30478787
10	0x3e8b7c53	0.2724329
11	0xbd463937	-0.048394408
12	0xbe31fe8b	-0.17382257
13	0x3eb449b4	0.3521248
14	0xbe07bfc3	-0.13256745
15	0x3ec2a64e	0.38017505
16	0x3df6fe95	0.120602764
17	0xbe21b6ff	-0.15792464
18	0x3de5f34b	0.11228045
19	0x3eabac04	0.33529675
20	0x3e2fa4be	0.17152688
21	0x3d30cdae	0.0431649
22	0x3d151978	0.036401242
23	0xbd723593	-0.059133124
24	0xbe1a27e1	-0.15054275
25	0xbefa5fe8	-0.48901296
26	0xbee6def4	-0.45091975
27	0xbf34b2ff	-0.70585626
28	0x3e6565f8	0.22402179
29	0x3ec1ffbc	0.37890422
30	0x3e5da69b	0.21645586
31	0xbddb7956	-0.10716502
32	0x3e8e541a	0.2779854
33	0x3dbdd819	0.09269733
34	0xbeac51f2	-0.3365627
35	0x3e13e50b	0.14442842
36	0x3de5ef06	0.11227231
37	0xbdceafef	-0.100921504
38	0xbda756f3	-0.08170881
39	0x3e98a87b	0.2981604
40	0x3e124cca	0.14287105
41	0xbd82dc8c	-0.06389722
42	0x3e62a44a	0.22132984
43	0x3d5299a1	0.051416043
44	0xbe088044	-0.1333018
45	0xbd1e87de	-0.03870379
46	0x3e9eaedc	0.30992782
47	0xbdeeb08b	-0.11654767
48	0x3e70182e	0.23446724
49	0x3caa196b	0.020764073
50	0x3e1319be	0.14365289
51	0x3c15b483	0.009137276
52	0xbe47a013	-0.19494657
53	0xbe946619	-0.28984144
54	0xbe613c31	-0.21995617
55	0xbb835eca	-0.0040091025
56	0x3e070c32	0.13188246
57	0x3e9366de	0.2878942
58	0xbd94fb8a	-0.0727454
59	0xbe8fa87e	-0.28058237
60	0x3c08ffde	0.008361785
61	0xbedba088	-0.42895913
62	0x3dce5e08	0.10076529
63	0xbdd10bb4	-0.1020731
64	0x3e414412	0.18873623
65	0xbe543966	-0.20725021
66	0x3e3c0918	0.18362844
67	0xbe286efe	-0.1644859
68	0xbda52a0d	-0.08064661
69	0xbe0e19e8	-0.1387707
70	0xbe682c9c	-0.22673267
71	0xbdfb4d20	-0.1227057
72	0xbd8ecd68	-0.06972772
73	0x3e296484	0.1654225
74	0xbe2654db	-0.16243307
75	0xbe691579	-0.22762097
76	0xbe62a40c	-0.22132891
77	0xbc1d02f4	-0.009583224
78	0xbcf97366	-0.030450534
79	0x3df833d3	0.1211926
80	0x3e0e3f28	0.1389128
81	0xbd328ae0	-0.043589473
82	0xbe259418	-0.16169775
83	0x3ccbc7e0	0.024875581
84	0xbe0ad22a	-0.13556734
85	0x3d645099	0.055740926
86	0x3ca01a9d	0.01954394
87	0x3db2c7a0	0.08729482
88	0x3e2a4058	0.16626108
89	0xbe05535c	-0.1302008
90	0xbe2419ae	-0.16025421
91	0xbd215d7d	-0.039395798
92	0xbd8a9ae8	-0.06767827
93	0x3e685308	0.22687924
94	0x3d768100	0.060181618
95	0x3d6d616b	0.057954233
96	0x3e1dd9ba	0.15415087
97	0x3df34818	0.11878985
98	0xbe83ab11	-0.2571645
99	0x3c3a246e	0.011361225
100	0x3e359bf4	0.17735273
101	0xbd596fa0	-0.05308497
102	0xbd5373e8	-0.05162421
103	0xbd9cdd37	-0.07659381
104	0x3d3acfc1	0.045608286
105	0xbe49f614	-0.19722778
106	0xbe595e7c	-0.21227449
107	0xbd4aab56	-0.049479805
108	0xbe135626	-0.14388332
109	0xbe028766	-0.12746963
110	0xbe6c66b0	-0.23086047
111	0xbe567a04	-0.20944983
112	0xbdc0a030	-0.09405553
113	0xbd1485c0	-0.036260366
114	0xbca115ab	-0.019663652
115	0x3e191358	0.14948785
116	0x3e599121	0.21246769
117	0x3e60ed53	0.21965532
118	0xbdde2f7e	-0.10848902
119	0xbe750e83	-0.23931317
120	0xbd8258e0	-0.06364608
121	0xbe0c7110	-0.13715005
122	0x3e4f2d71	0.20232178
123	0x3e740d0d	0.23833103
124	0xbdf50073	-0.11962976
125	0x3d4094a3	0.04701675
126	0xbd6934d0	-0.05693513
127	0x3dfa9f80	0.122374535
128	0x3fdd195c	1.7273364
129	0x3fee26c1	1.8605577
130	0x3d47c409	0.048770938
131	0x3eb4419d	0.3520631
132	0x3f33b049	0.70190865
133	0x3ea02724	0.31279862
134	0x3f2a3adf	0.6649608
135	0x3f1061b0	0.5639906
136	0x3eb0b53d	0.34513274
137	0x3f98fe18	1.1952543
138	0x3f4b83e0	0.794981
139	0x3d517224	0.051134244
140	0x3f45fab7	0.77335685
141	0x3f526e78	0.8219981
142	0x3f462fb3	0.77416533
143	0x3fe42838	1.7824774
144	0x3f937d20	1.152256
145	0x3e92114b	0.28528818
146	0x3e72340b	0.23652665
147	0xbebfef81	-0.37487414
148	0xbf007ef5	-0.5019372
149	0x3f436d53	0.7633869
150	0x3f058918	0.52162313
151	0x3f14f453	0.5818531
152	0x3f1f98b9	0.6234241
153	0xbf5b40ae	-0.8564557
154	0xbf6ce34b	-0.9253432
155	0x3ef2fc0b	0.4745792
156	0x3f32a9fa	0.69790614
157	0xbeaf4768	-0.34234166
158	0xbe29aa6f	-0.16568922
159	0x3ed37e41	0.41307262
160	0x3dcdfc19	0.100578494
161	0xbe9a2df7	-0.30113193
162	0xbec5222e	-0.3850264
163	0xbe7b5edf	-0.24547909
164	0x3e46bf0c	0.19408816
165	0xbd086bfe	-0.033306114
166	0xbeaf103f	-0.34192082
167	0x3f7432c1	0.95389944
168	0xbd9cf22e	-0.076633796
169	0x3ead0328	0.3379147
170	0x3e9b880a	0.30377227
171	0x3fb129e1	1.3840905
172	0xbede940e	-0.43472332
173	0xbda1b7ab	-0.0789636
174	0xbe0ca652	-0.13735321
175	0x3eb67327	0.3563473
176	0xbe3a620f	-0.18201469
177	0x3f1245a1	0.57137495
178	0x3eeb0e46	0.45909327
179	0xbe54cd95	-0.20781548
180	0xbca67ca4	-0.020323105
181	0xbf239c56	-0.63910425
182	0x3f399e15	0.7250684
183	0xbec786f8	-0.3897016
184	0x3f3415a1	0.70345503
185	0xbedd33d9	-0.4320362
186	0x3d49a5ac	0.049230263
187	0x3f0f344f	0.5593919
188	0x3f5e6dff	0.8688659
189	0x3f115b82	0.56780255
190	0xbdf83bf7	-0.121208124
191	0x3f0850d6	0.53248346
192	0x3f884819	1.0647002
193	0x3f44a960	0.76820946
194	0x3ea8d752	0.32976776
195	0xbcde4715	-0.027133504
196	0xbc85268b	-0.01625373
197	0x3e7146f7	0.23562227
198	0x3e81b53c	0.25333583
199	0x3f2ab3e3	0.66680735
200	0x3e8cfda1	0.27537253
201	0x3f430eb8	0.76194334
202	0x3f1844bc	0.5947988
203	0xbe7b515c	-0.24542755
204	0x3f2ed84f	0.6829881
205	0x3f325c76	0.69672334
206	0x3f026c79	0.50946766
207	0x3f5b0936	0.8556093
208	0x3f191fcd	0.5981415
209	0x3e1d97c8	0.15389931
210	0x3e56c611	0.20973994
211	0xbe2e5130	-0.17023158
212	0xbe6dd2f7	-0.23225008
213	0x3ec96a02	0.3933869
214	0x3f0c9245	0.5491069
215	0x3f02ba90	0.5106592
216	0x3e662603	0.22475438
217	0xbf21d26c	-0.63211703
218	0xbf0ecd86	-0.55782354
219	0x3d797a94	0.060907915
220	0x3f027768	0.5096345
221	0xbe93a4ee	-0.2883677
222	0xbda3d54b	-0.07999667
223	0x3ead1c96	0.33810872
224	0x3e407603	0.18795018
225	0xbc45afd2	-0.012065845
226	0xbe169edb	-0.14709036
227	0xbdc9e9de	-0.0985906
228	0x3e96d3b7	0.294584
229	0xbcfab158	-0.030602142
230	0xbd928e08	-0.071559966
231	0x3f159741	0.5843392
232	0xbb81c70a	-0.003960495
233	0x3e52229c	0.20521015
234	0x3cbe3754	0.023219742
235	0x3f7cec4c	0.9879806
236	0xbf03b7bc	-0.5145223
237	0xbcf3af14	-0.02974657
238	0x3d53c318	0.051699728
239	0x3d976cdc	0.0739381
240	0xbc297816	-0.010343572
241	0x3ef1cbbb	0.47225747
242	0x3ee6c983	0.45075616
243	0xbe5c1797	-0.21493374
244	0xbdc2c6d6	-0.09510581
245	0xbedce395	-0.4314238
246	0x3e27dbe2	0.16392472
247	0xbe9a7463	-0.3016692
248	0x3e82b53d	0.255289
249	0xbec0b781	-0.37640002
250	0x3e040ba2	0.12895063
251	0xbd493416	-0.04912194
252	0x3e38975c	0.18026489
253	0x3e452d4c	0.1925556
254	0x3df936bb	0.12168642
255	0x3ed7a7e0	0.42120266

sequential/dense_2/MatMul f4 [4, 32]
0	0x3eba8329	0.36428192
1	0xbea53066	-0.32263488
2	0x3f2bb3f0	0.6707144
3	0x3eefa9c1	0.468092
4	0xbedf8344	-0.43654835
5	0xbdf37480	-0.11887455
6	0xbf2e19cd	-0.6800812
7	0x3ed756f4	0.42058527
8	0x3ea970f6	0.33093995
9	0x3ebf85d7	0.374068
10	0xbffbe429	-1.9679004
11	0x3e9d9f4c	0.30785596
12	0x3e466560	0.19374609
13	0xbe5a44cc	-0.21315306
14	0x3e71e6a7	0.23623143
15	0xc02eaf88	-2.7294636
16	0x3e267ac8	0.16257775
17	0xbfd8b38e	-1.6929796
18	0x3da0b157	0.07846325
19	0xbe382f95	-0.17986901
20	0xc005ef96	-2.0927482
21	0x3d5494f9	0.051899884
22	0xbedb7e1a	-0.42869645
23	0xbe8b7503	-0.2723771
24	0xbea13ffc	-0.3149413
25	0x3ed7b7a5	0.42132297
26	0x3df02968	0.117266476
27	0x3ee035d9	0.43791083
28	0x3e1c04e7	0.15236245
29	0xbebb6a6b	-0.36604628
30	0x3ccb1386	0.024789583
31	0x3e28cebc	0.16485113
32	0xbe0c2e02	-0.13689426
33	0x3ec5b5cc	0.38615263
34	0xbfdf1c8b	-1.7430586
35	0xbfc488d4	-1.5354257
36	0x3ee0b200	0.43885803
37	0x3e9a912f	0.3018889
38	0x4013c08f	2.3086278
39	0xc0901505	-4.502566
40	0xc00a25bf	-2.1585538
41	0x3e848d69	0.25889137
42	0x3fcf0eb4	1.6176362
43	0x3ea6cce3	0.3257819
44	0xbff700a8	-1.9297075
45	0xbfd85a33	-1.6902527
46	0xbf659996	-0.8968748
47	0xba9170c4	-0.0011096229
48	0xbe6e6ce7	-0.2328373
49	0x3fc3f94a	1.5310452
50	0x3d3d7c6b	0.046261232
51	0xbfdcd715	-1.7253138
52	0x3f97d178	1.18608
53	0xc000fd81	-2.0154727
54	0xc059e167	-3.4043825
55	0xbe9f308e	-0.31091732
56	0x3eb360d4	0.35034811
57	0x3eb19e4f	0.34691092
58	0x3e19bbd7	0.15013061
59	0xbfd1b2cb	-1.6382688
60	0x3ce3f2a0	0.027825654
61	0x3f389cc3	0.721142
62	0x3eb917d7	0.36151
63	0xbf633d91	-0.8876582
64	0xbce4b29c	-0.027917199
65	0x3e48c76c	0.19607323
66	0xbdcb0c33	-0.09914436
67	0xbecbd15d	-0.3980817
68	0x3e91af5e	0.28454107
69	0xbdac8272	-0.08423318
70	0xbffa1a91	-1.9539357
71	0xc0601b20	-3.5016556
72	0xbdc0c356	-0.094122574
73	0x3e5401ad	0.20703764
74	0x3d3243f4	0.043521836
75	0x3ec64022	0.38720804
76	0xbeaad3cd	-0.33364716
77	0xbf9d3e80	-1.2284698
78	0xbe960113	-0.29297695
79	0xbfdb8f2c	-1.7153068
80	0xbec854b0	-0.3912711
81	0x3db5f8eb	0.08885368
82	0x3e85a553	0.26102695
83	0xbfa9c27a	-1.3262475
84	0x3ecc88a6	0.39948004
85	0xbe087642	-0.13326362
86	0xbfd9324b	-1.6968473
87	0x3e32c12c	0.17456502
88	0x3eb48e0f	0.35264632
89	0x3ee7f694	0.45305312
90	0x3e56afc6	0.2096549
91	0xbf8bda76	-1.0926044
92	0x3e7b9004	0.24566656
93	0x3f088cee	0.5334004
94	0x3e985968	0.29755712
95	0xbf2f8bfb	-0.6857297
96	0xbe204a03	-0.15653233
97	0x3d844cb3	0.06459942
98	0x3f10288b	0.56311864
99	0x3e230ee7	0.15923654
100	0xc034d080	-2.8252258
101	0xbe7cb147	-0.24677001
102	0xbf8d8004	-1.1054692
103	0x3f29b56e	0.66292465
104	0x3e206d02	0.15666583
105	0xbf9cf5a6	-1.2262466
106	0xbe7af747	-0.24508391
107	0xbf779a3b	-0.9671971
108	0x3f20a0dc	0.6274545
109	0x3f1ff860	0.62488365
110	0x3c79615e	0.015220968
111	0x403bb557	2.932943
112	0x3e56ad9f	0.20964669
113	0x3eeea297	0.4660842
114	0xbfab55bf	-1.3385543
115	0x3f32201e	0.69580257
116	0xbf0f19c5	-0.55898696
117	0x3d8940e1	0.06701828
118	0x400eea8a	2.2330651
119	0xbbac3431	-0.005255245
120	0x3ea2f78e	0.31829494
121	0xbfa28bde	-1.2698934
122	0xbcf96447	-0.030443324
123	0x3f2ce877	0.67542213
124	0x3e2b8703	0.16750722
125	0xc01a6d0e	-2.4129062
126	0xc01d8ec5	-2.461839
127	0x3f00ff24	0.50389314
